…
I1025 08:35:46.819577  3828 net.cpp:322] The NetState phase (0) differed from the phase (1) specified by a rule in layer accuracy
I1025 08:35:46.825541  3828 net.cpp:58] Initializing net from parameters: 
name: "vggface_train_test"
state {
  phase: TRAIN
  level: 0
  stage: ""
}
layer {
  name: "data"
  type: "Data"
  top: "data"
  top: "label"
  include {
    phase: TRAIN
  }
  transform_param {
    mirror: true
    crop_size: 224
    mean_file: "vggface2/face_mean.binaryproto"
  }
  data_param {
    source: "vggface2/face_train_lmdb"
    batch_size: 10
    backend: LMDB
  }
}
layer {
  name: "conv1_1"
  type: "Convolution"
  bottom: "data"
  top: "conv1_1"
  convolution_param {
    num_output: 64
    pad: 1
    kernel_size: 3
  }
}
layer {
  name: "relu1_1"
  type: "ReLU"
  bottom: "conv1_1"
  top: "conv1_1"
}
layer {
  name: "conv1_2"
  type: "Convolution"
  bottom: "conv1_1"
  top: "conv1_2"
  convolution_param {
    num_output: 64
    pad: 1
    kernel_size: 3
  }
}
layer {
  name: "relu1_2"
  type: "ReLU"
  bottom: "conv1_2"
  top: "conv1_2"
}
layer {
  name: "pool1"
  type: "Pooling"
  bottom: "conv1_2"
  top: "pool1"
  pooling_param {
    pool: MAX
    kernel_size: 2
    stride: 2
  }
}
layer {
  name: "conv2_1"
  type: "Convolution"
  bottom: "pool1"
  top: "conv2_1"
  convolution_param {
    num_output: 128
    pad: 1
    kernel_size: 3
  }
}
layer {
  name: "relu2_1"
  type: "ReLU"
  bottom: "conv2_1"
  top: "conv2_1"
}
layer {
  name: "conv2_2"
  type: "Convolution"
  bottom: "conv2_1"
  top: "conv2_2"
  convolution_param {
    num_output: 128
    pad: 1
    kernel_size: 3
  }
}
layer {
  name: "relu2_2"
  type: "ReLU"
  bottom: "conv2_2"
  top: "conv2_2"
}
layer {
  name: "pool2"
  type: "Pooling"
  bottom: "conv2_2"
  top: "pool2"
  pooling_param {
    pool: MAX
    kernel_size: 2
    stride: 2
  }
}
layer {
  name: "conv3_1"
  type: "Convolution"
  bottom: "pool2"
  top: "conv3_1"
  convolution_param {
    num_output: 256
    pad: 1
    kernel_size: 3
  }
}
layer {
  name: "relu3_1"
  type: "ReLU"
  bottom: "conv3_1"
  top: "conv3_1"
}
layer {
  name: "conv3_2"
  type: "Convolution"
  bottom: "conv3_1"
  top: "conv3_2"
  convolution_param {
    num_output: 256
    pad: 1
    kernel_size: 3
  }
}
layer {
  name: "relu3_2"
  type: "ReLU"
  bottom: "conv3_2"
  top: "conv3_2"
}
layer {
  name: "conv3_3"
  type: "Convolution"
  bottom: "conv3_2"
  top: "conv3_3"
  convolution_param {
    num_output: 256
    pad: 1
    kernel_size: 3
  }
}
layer {
  name: "relu3_3"
  type: "ReLU"
  bottom: "conv3_3"
  top: "conv3_3"
}
layer {
  name: "pool3"
  type: "Pooling"
  bottom: "conv3_3"
  top: "pool3"
  pooling_param {
    pool: MAX
    kernel_size: 2
    stride: 2
  }
}
layer {
  name: "conv4_1"
  type: "Convolution"
  bottom: "pool3"
  top: "conv4_1"
  convolution_param {
    num_output: 512
    pad: 1
    kernel_size: 3
  }
}
layer {
  name: "relu4_1"
  type: "ReLU"
  bottom: "conv4_1"
  top: "conv4_1"
}
layer {
  name: "conv4_2"
  type: "Convolution"
  bottom: "conv4_1"
  top: "conv4_2"
  convolution_param {
    num_output: 512
    pad: 1
    kernel_size: 3
  }
}
layer {
  name: "relu4_2"
  type: "ReLU"
  bottom: "conv4_2"
  top: "conv4_2"
}
layer {
  name: "conv4_3"
  type: "Convolution"
  bottom: "conv4_2"
  top: "conv4_3"
  convolution_param {
    num_output: 512
    pad: 1
    kernel_size: 3
  }
}
layer {
  name: "relu4_3"
  type: "ReLU"
  bottom: "conv4_3"
  top: "conv4_3"
}
layer {
  name: "pool4"
  type: "Pooling"
  bottom: "conv4_3"
  top: "pool4"
  pooling_param {
    pool: MAX
    kernel_size: 2
    stride: 2
  }
}
layer {
  name: "conv5_1"
  type: "Convolution"
  bottom: "pool4"
  top: "conv5_1"
  convolution_param {
    num_output: 512
    pad: 1
    kernel_size: 3
  }
}
layer {
  name: "relu5_1"
  type: "ReLU"
  bottom: "conv5_1"
  top: "conv5_1"
}
layer {
  name: "conv5_2"
  type: "Convolution"
  bottom: "conv5_1"
  top: "conv5_2"
  convolution_param {
    num_output: 512
    pad: 1
    kernel_size: 3
  }
}
layer {
  name: "relu5_2"
  type: "ReLU"
  bottom: "conv5_2"
  top: "conv5_2"
}
layer {
  name: "conv5_3"
  type: "Convolution"
  bottom: "conv5_2"
  top: "conv5_3"
  convolution_param {
    num_output: 512
    pad: 1
    kernel_size: 3
  }
}
layer {
  name: "relu5_3"
  type: "ReLU"
  bottom: "conv5_3"
  top: "conv5_3"
}
layer {
  name: "pool5"
  type: "Pooling"
  bottom: "conv5_3"
  top: "pool5"
  pooling_param {
    pool: MAX
    kernel_size: 2
    stride: 2
  }
}
layer {
  name: "fc6"
  type: "InnerProduct"
  bottom: "pool5"
  top: "fc6"
  inner_product_param {
    num_output: 4096
  }
}
layer {
  name: "relu6"
  type: "ReLU"
  bottom: "fc6"
  top: "fc6"
}
layer {
  name: "drop6"
  type: "Dropout"
  bottom: "fc6"
  top: "fc6"
  dropout_param {
    dropout_ratio: 0.5
  }
}
layer {
  name: "fc7"
  type: "InnerProduct"
  bottom: "fc6"
  top: "fc7"
  inner_product_param {
    num_output: 4096
  }
}
layer {
  name: "relu7"
  type: "ReLU"
  bottom: "fc7"
  top: "fc7"
}
layer {
  name: "drop7"
  type: "Dropout"
  bottom: "fc7"
  top: "fc7"
  dropout_param {
    dropout_ratio: 0.5
  }
}
layer {
  name: "facefc8"
  type: "InnerProduct"
  bottom: "fc7"
  top: "fc8"
  inner_product_param {
    num_output: 100
  }
}
layer {
  name: "loss"
  type: "SoftmaxWithLoss"
  bottom: "fc8"
  bottom: "label"
  top: "loss"
}
I1025 08:35:46.825877  3828 layer_factory.hpp:77] Creating layer data
I1025 08:35:46.826800  3828 net.cpp:100] Creating Layer data
I1025 08:35:46.826911  3828 net.cpp:408] data -> data
I1025 08:35:46.827000  3828 net.cpp:408] data -> label
I1025 08:35:46.827057  3828 data_transformer.cpp:25] Loading mean file from: vggface2/face_mean.binaryproto
I1025 08:35:46.828611  4407 db_lmdb.cpp:35] Opened lmdb vggface2/face_train_lmdb
I1025 08:35:46.926843  3828 data_layer.cpp:41] output data size: 10,3,224,224
I1025 08:35:46.984292  3828 net.cpp:150] Setting up data
I1025 08:35:46.984354  3828 net.cpp:157] Top shape: 10 3 224 224 (1505280)
I1025 08:35:46.984367  3828 net.cpp:157] Top shape: 10 (10)
I1025 08:35:46.984375  3828 net.cpp:165] Memory required for data: 6021160
I1025 08:35:46.984395  3828 layer_factory.hpp:77] Creating layer conv1_1
I1025 08:35:46.984431  3828 net.cpp:100] Creating Layer conv1_1
I1025 08:35:46.984443  3828 net.cpp:434] conv1_1 <- data
I1025 08:35:46.984472  3828 net.cpp:408] conv1_1 -> conv1_1
I1025 08:35:48.084589  3828 net.cpp:150] Setting up conv1_1
I1025 08:35:48.084643  3828 net.cpp:157] Top shape: 10 64 224 224 (32112640)
I1025 08:35:48.084650  3828 net.cpp:165] Memory required for data: 134471720
I1025 08:35:48.084683  3828 layer_factory.hpp:77] Creating layer relu1_1
I1025 08:35:48.084702  3828 net.cpp:100] Creating Layer relu1_1
I1025 08:35:48.084707  3828 net.cpp:434] relu1_1 <- conv1_1
I1025 08:35:48.084717  3828 net.cpp:395] relu1_1 -> conv1_1 (in-place)
I1025 08:35:48.085235  3828 net.cpp:150] Setting up relu1_1
I1025 08:35:48.085255  3828 net.cpp:157] Top shape: 10 64 224 224 (32112640)
I1025 08:35:48.085260  3828 net.cpp:165] Memory required for data: 262922280
I1025 08:35:48.085266  3828 layer_factory.hpp:77] Creating layer conv1_2
I1025 08:35:48.085288  3828 net.cpp:100] Creating Layer conv1_2
I1025 08:35:48.085302  3828 net.cpp:434] conv1_2 <- conv1_1
I1025 08:35:48.085309  3828 net.cpp:408] conv1_2 -> conv1_2
I1025 08:35:48.089025  3828 net.cpp:150] Setting up conv1_2
I1025 08:35:48.089082  3828 net.cpp:157] Top shape: 10 64 224 224 (32112640)
I1025 08:35:48.089088  3828 net.cpp:165] Memory required for data: 391372840
I1025 08:35:48.089108  3828 layer_factory.hpp:77] Creating layer relu1_2
I1025 08:35:48.089124  3828 net.cpp:100] Creating Layer relu1_2
I1025 08:35:48.089130  3828 net.cpp:434] relu1_2 <- conv1_2
I1025 08:35:48.089138  3828 net.cpp:395] relu1_2 -> conv1_2 (in-place)
I1025 08:35:48.089365  3828 net.cpp:150] Setting up relu1_2
I1025 08:35:48.089380  3828 net.cpp:157] Top shape: 10 64 224 224 (32112640)
I1025 08:35:48.089385  3828 net.cpp:165] Memory required for data: 519823400
I1025 08:35:48.089390  3828 layer_factory.hpp:77] Creating layer pool1
I1025 08:35:48.089408  3828 net.cpp:100] Creating Layer pool1
I1025 08:35:48.089413  3828 net.cpp:434] pool1 <- conv1_2
I1025 08:35:48.089419  3828 net.cpp:408] pool1 -> pool1
I1025 08:35:48.089489  3828 net.cpp:150] Setting up pool1
I1025 08:35:48.089498  3828 net.cpp:157] Top shape: 10 64 112 112 (8028160)
I1025 08:35:48.089503  3828 net.cpp:165] Memory required for data: 551936040
I1025 08:35:48.089506  3828 layer_factory.hpp:77] Creating layer conv2_1
I1025 08:35:48.089516  3828 net.cpp:100] Creating Layer conv2_1
I1025 08:35:48.089520  3828 net.cpp:434] conv2_1 <- pool1
I1025 08:35:48.089526  3828 net.cpp:408] conv2_1 -> conv2_1
I1025 08:35:48.093256  3828 net.cpp:150] Setting up conv2_1
I1025 08:35:48.093318  3828 net.cpp:157] Top shape: 10 128 112 112 (16056320)
I1025 08:35:48.093328  3828 net.cpp:165] Memory required for data: 616161320
I1025 08:35:48.093355  3828 layer_factory.hpp:77] Creating layer relu2_1
I1025 08:35:48.093379  3828 net.cpp:100] Creating Layer relu2_1
I1025 08:35:48.093389  3828 net.cpp:434] relu2_1 <- conv2_1
I1025 08:35:48.093402  3828 net.cpp:395] relu2_1 -> conv2_1 (in-place)
I1025 08:35:48.094249  3828 net.cpp:150] Setting up relu2_1
I1025 08:35:48.094322  3828 net.cpp:157] Top shape: 10 128 112 112 (16056320)
I1025 08:35:48.094336  3828 net.cpp:165] Memory required for data: 680386600
I1025 08:35:48.094350  3828 layer_factory.hpp:77] Creating layer conv2_2
I1025 08:35:48.094391  3828 net.cpp:100] Creating Layer conv2_2
I1025 08:35:48.094408  3828 net.cpp:434] conv2_2 <- conv2_1
I1025 08:35:48.094424  3828 net.cpp:408] conv2_2 -> conv2_2
I1025 08:35:48.097998  3828 net.cpp:150] Setting up conv2_2
I1025 08:35:48.098069  3828 net.cpp:157] Top shape: 10 128 112 112 (16056320)
I1025 08:35:48.098081  3828 net.cpp:165] Memory required for data: 744611880
I1025 08:35:48.098104  3828 layer_factory.hpp:77] Creating layer relu2_2
I1025 08:35:48.098127  3828 net.cpp:100] Creating Layer relu2_2
I1025 08:35:48.098140  3828 net.cpp:434] relu2_2 <- conv2_2
I1025 08:35:48.098158  3828 net.cpp:395] relu2_2 -> conv2_2 (in-place)
I1025 08:35:48.099156  3828 net.cpp:150] Setting up relu2_2
I1025 08:35:48.099230  3828 net.cpp:157] Top shape: 10 128 112 112 (16056320)
I1025 08:35:48.099246  3828 net.cpp:165] Memory required for data: 808837160
I1025 08:35:48.099261  3828 layer_factory.hpp:77] Creating layer pool2
I1025 08:35:48.099290  3828 net.cpp:100] Creating Layer pool2
I1025 08:35:48.099306  3828 net.cpp:434] pool2 <- conv2_2
I1025 08:35:48.099328  3828 net.cpp:408] pool2 -> pool2
I1025 08:35:48.099483  3828 net.cpp:150] Setting up pool2
I1025 08:35:48.099505  3828 net.cpp:157] Top shape: 10 128 56 56 (4014080)
I1025 08:35:48.099512  3828 net.cpp:165] Memory required for data: 824893480
I1025 08:35:48.099521  3828 layer_factory.hpp:77] Creating layer conv3_1
I1025 08:35:48.099539  3828 net.cpp:100] Creating Layer conv3_1
I1025 08:35:48.099547  3828 net.cpp:434] conv3_1 <- pool2
I1025 08:35:48.099558  3828 net.cpp:408] conv3_1 -> conv3_1
I1025 08:35:48.104163  3828 net.cpp:150] Setting up conv3_1
I1025 08:35:48.104210  3828 net.cpp:157] Top shape: 10 256 56 56 (8028160)
I1025 08:35:48.104233  3828 net.cpp:165] Memory required for data: 857006120
I1025 08:35:48.104279  3828 layer_factory.hpp:77] Creating layer relu3_1
I1025 08:35:48.104302  3828 net.cpp:100] Creating Layer relu3_1
I1025 08:35:48.104315  3828 net.cpp:434] relu3_1 <- conv3_1
I1025 08:35:48.104329  3828 net.cpp:395] relu3_1 -> conv3_1 (in-place)
I1025 08:35:48.104682  3828 net.cpp:150] Setting up relu3_1
I1025 08:35:48.104710  3828 net.cpp:157] Top shape: 10 256 56 56 (8028160)
I1025 08:35:48.104722  3828 net.cpp:165] Memory required for data: 889118760
I1025 08:35:48.104732  3828 layer_factory.hpp:77] Creating layer conv3_2
I1025 08:35:48.104755  3828 net.cpp:100] Creating Layer conv3_2
I1025 08:35:48.104768  3828 net.cpp:434] conv3_2 <- conv3_1
I1025 08:35:48.104785  3828 net.cpp:408] conv3_2 -> conv3_2
I1025 08:35:48.117777  3828 net.cpp:150] Setting up conv3_2
I1025 08:35:48.117871  3828 net.cpp:157] Top shape: 10 256 56 56 (8028160)
I1025 08:35:48.117882  3828 net.cpp:165] Memory required for data: 921231400
I1025 08:35:48.117905  3828 layer_factory.hpp:77] Creating layer relu3_2
I1025 08:35:48.117928  3828 net.cpp:100] Creating Layer relu3_2
I1025 08:35:48.117939  3828 net.cpp:434] relu3_2 <- conv3_2
I1025 08:35:48.117954  3828 net.cpp:395] relu3_2 -> conv3_2 (in-place)
I1025 08:35:48.120025  3828 net.cpp:150] Setting up relu3_2
I1025 08:35:48.120101  3828 net.cpp:157] Top shape: 10 256 56 56 (8028160)
I1025 08:35:48.120116  3828 net.cpp:165] Memory required for data: 953344040
I1025 08:35:48.120132  3828 layer_factory.hpp:77] Creating layer conv3_3
I1025 08:35:48.120164  3828 net.cpp:100] Creating Layer conv3_3
I1025 08:35:48.120182  3828 net.cpp:434] conv3_3 <- conv3_2
I1025 08:35:48.120206  3828 net.cpp:408] conv3_3 -> conv3_3
I1025 08:35:48.126909  3828 net.cpp:150] Setting up conv3_3
I1025 08:35:48.126986  3828 net.cpp:157] Top shape: 10 256 56 56 (8028160)
I1025 08:35:48.126998  3828 net.cpp:165] Memory required for data: 985456680
I1025 08:35:48.127022  3828 layer_factory.hpp:77] Creating layer relu3_3
I1025 08:35:48.127051  3828 net.cpp:100] Creating Layer relu3_3
I1025 08:35:48.127065  3828 net.cpp:434] relu3_3 <- conv3_3
I1025 08:35:48.127084  3828 net.cpp:395] relu3_3 -> conv3_3 (in-place)
I1025 08:35:48.128521  3828 net.cpp:150] Setting up relu3_3
I1025 08:35:48.128581  3828 net.cpp:157] Top shape: 10 256 56 56 (8028160)
I1025 08:35:48.128590  3828 net.cpp:165] Memory required for data: 1017569320
I1025 08:35:48.128602  3828 layer_factory.hpp:77] Creating layer pool3
I1025 08:35:48.128623  3828 net.cpp:100] Creating Layer pool3
I1025 08:35:48.128633  3828 net.cpp:434] pool3 <- conv3_3
I1025 08:35:48.128664  3828 net.cpp:408] pool3 -> pool3
I1025 08:35:48.128780  3828 net.cpp:150] Setting up pool3
I1025 08:35:48.128798  3828 net.cpp:157] Top shape: 10 256 28 28 (2007040)
I1025 08:35:48.128805  3828 net.cpp:165] Memory required for data: 1025597480
I1025 08:35:48.128814  3828 layer_factory.hpp:77] Creating layer conv4_1
I1025 08:35:48.128836  3828 net.cpp:100] Creating Layer conv4_1
I1025 08:35:48.128845  3828 net.cpp:434] conv4_1 <- pool3
I1025 08:35:48.128855  3828 net.cpp:408] conv4_1 -> conv4_1
I1025 08:35:48.143024  3828 net.cpp:150] Setting up conv4_1
I1025 08:35:48.143116  3828 net.cpp:157] Top shape: 10 512 28 28 (4014080)
I1025 08:35:48.143131  3828 net.cpp:165] Memory required for data: 1041653800
I1025 08:35:48.143158  3828 layer_factory.hpp:77] Creating layer relu4_1
I1025 08:35:48.143188  3828 net.cpp:100] Creating Layer relu4_1
I1025 08:35:48.143203  3828 net.cpp:434] relu4_1 <- conv4_1
I1025 08:35:48.143227  3828 net.cpp:395] relu4_1 -> conv4_1 (in-place)
I1025 08:35:48.144686  3828 net.cpp:150] Setting up relu4_1
I1025 08:35:48.144748  3828 net.cpp:157] Top shape: 10 512 28 28 (4014080)
I1025 08:35:48.144757  3828 net.cpp:165] Memory required for data: 1057710120
I1025 08:35:48.144769  3828 layer_factory.hpp:77] Creating layer conv4_2
I1025 08:35:48.144800  3828 net.cpp:100] Creating Layer conv4_2
I1025 08:35:48.144814  3828 net.cpp:434] conv4_2 <- conv4_1
I1025 08:35:48.144850  3828 net.cpp:408] conv4_2 -> conv4_2
I1025 08:35:48.159083  3828 net.cpp:150] Setting up conv4_2
I1025 08:35:48.159236  3828 net.cpp:157] Top shape: 10 512 28 28 (4014080)
I1025 08:35:48.159260  3828 net.cpp:165] Memory required for data: 1073766440
I1025 08:35:48.159312  3828 layer_factory.hpp:77] Creating layer relu4_2
I1025 08:35:48.159351  3828 net.cpp:100] Creating Layer relu4_2
I1025 08:35:48.159370  3828 net.cpp:434] relu4_2 <- conv4_2
I1025 08:35:48.159399  3828 net.cpp:395] relu4_2 -> conv4_2 (in-place)
I1025 08:35:48.160498  3828 net.cpp:150] Setting up relu4_2
I1025 08:35:48.160565  3828 net.cpp:157] Top shape: 10 512 28 28 (4014080)
I1025 08:35:48.160579  3828 net.cpp:165] Memory required for data: 1089822760
I1025 08:35:48.160595  3828 layer_factory.hpp:77] Creating layer conv4_3
I1025 08:35:48.160629  3828 net.cpp:100] Creating Layer conv4_3
I1025 08:35:48.160645  3828 net.cpp:434] conv4_3 <- conv4_2
I1025 08:35:48.160663  3828 net.cpp:408] conv4_3 -> conv4_3
I1025 08:35:48.172624  3828 net.cpp:150] Setting up conv4_3
I1025 08:35:48.172693  3828 net.cpp:157] Top shape: 10 512 28 28 (4014080)
I1025 08:35:48.172700  3828 net.cpp:165] Memory required for data: 1105879080
I1025 08:35:48.172719  3828 layer_factory.hpp:77] Creating layer relu4_3
I1025 08:35:48.172741  3828 net.cpp:100] Creating Layer relu4_3
I1025 08:35:48.172752  3828 net.cpp:434] relu4_3 <- conv4_3
I1025 08:35:48.172766  3828 net.cpp:395] relu4_3 -> conv4_3 (in-place)
I1025 08:35:48.173702  3828 net.cpp:150] Setting up relu4_3
I1025 08:35:48.173755  3828 net.cpp:157] Top shape: 10 512 28 28 (4014080)
I1025 08:35:48.173763  3828 net.cpp:165] Memory required for data: 1121935400
I1025 08:35:48.173774  3828 layer_factory.hpp:77] Creating layer pool4
I1025 08:35:48.173791  3828 net.cpp:100] Creating Layer pool4
I1025 08:35:48.173800  3828 net.cpp:434] pool4 <- conv4_3
I1025 08:35:48.173815  3828 net.cpp:408] pool4 -> pool4
I1025 08:35:48.173914  3828 net.cpp:150] Setting up pool4
I1025 08:35:48.173928  3828 net.cpp:157] Top shape: 10 512 14 14 (1003520)
I1025 08:35:48.173933  3828 net.cpp:165] Memory required for data: 1125949480
I1025 08:35:48.173939  3828 layer_factory.hpp:77] Creating layer conv5_1
I1025 08:35:48.173954  3828 net.cpp:100] Creating Layer conv5_1
I1025 08:35:48.173961  3828 net.cpp:434] conv5_1 <- pool4
I1025 08:35:48.173971  3828 net.cpp:408] conv5_1 -> conv5_1
I1025 08:35:48.187872  3828 net.cpp:150] Setting up conv5_1
I1025 08:35:48.187935  3828 net.cpp:157] Top shape: 10 512 14 14 (1003520)
I1025 08:35:48.187952  3828 net.cpp:165] Memory required for data: 1129963560
I1025 08:35:48.187980  3828 layer_factory.hpp:77] Creating layer relu5_1
I1025 08:35:48.188014  3828 net.cpp:100] Creating Layer relu5_1
I1025 08:35:48.188031  3828 net.cpp:434] relu5_1 <- conv5_1
I1025 08:35:48.188051  3828 net.cpp:395] relu5_1 -> conv5_1 (in-place)
I1025 08:35:48.188606  3828 net.cpp:150] Setting up relu5_1
I1025 08:35:48.188653  3828 net.cpp:157] Top shape: 10 512 14 14 (1003520)
I1025 08:35:48.188663  3828 net.cpp:165] Memory required for data: 1133977640
I1025 08:35:48.188676  3828 layer_factory.hpp:77] Creating layer conv5_2
I1025 08:35:48.188710  3828 net.cpp:100] Creating Layer conv5_2
I1025 08:35:48.188724  3828 net.cpp:434] conv5_2 <- conv5_1
I1025 08:35:48.188741  3828 net.cpp:408] conv5_2 -> conv5_2
I1025 08:35:48.204690  3828 net.cpp:150] Setting up conv5_2
I1025 08:35:48.204759  3828 net.cpp:157] Top shape: 10 512 14 14 (1003520)
I1025 08:35:48.204767  3828 net.cpp:165] Memory required for data: 1137991720
I1025 08:35:48.204785  3828 layer_factory.hpp:77] Creating layer relu5_2
I1025 08:35:48.204805  3828 net.cpp:100] Creating Layer relu5_2
I1025 08:35:48.204815  3828 net.cpp:434] relu5_2 <- conv5_2
I1025 08:35:48.204828  3828 net.cpp:395] relu5_2 -> conv5_2 (in-place)
I1025 08:35:48.205577  3828 net.cpp:150] Setting up relu5_2
I1025 08:35:48.205621  3828 net.cpp:157] Top shape: 10 512 14 14 (1003520)
I1025 08:35:48.205629  3828 net.cpp:165] Memory required for data: 1142005800
I1025 08:35:48.205638  3828 layer_factory.hpp:77] Creating layer conv5_3
I1025 08:35:48.205675  3828 net.cpp:100] Creating Layer conv5_3
I1025 08:35:48.205698  3828 net.cpp:434] conv5_3 <- conv5_2
I1025 08:35:48.205709  3828 net.cpp:408] conv5_3 -> conv5_3
I1025 08:35:48.220029  3828 net.cpp:150] Setting up conv5_3
I1025 08:35:48.220137  3828 net.cpp:157] Top shape: 10 512 14 14 (1003520)
I1025 08:35:48.220152  3828 net.cpp:165] Memory required for data: 1146019880
I1025 08:35:48.220180  3828 layer_factory.hpp:77] Creating layer relu5_3
I1025 08:35:48.220214  3828 net.cpp:100] Creating Layer relu5_3
I1025 08:35:48.220230  3828 net.cpp:434] relu5_3 <- conv5_3
I1025 08:35:48.220247  3828 net.cpp:395] relu5_3 -> conv5_3 (in-place)
I1025 08:35:48.221912  3828 net.cpp:150] Setting up relu5_3
I1025 08:35:48.221982  3828 net.cpp:157] Top shape: 10 512 14 14 (1003520)
I1025 08:35:48.221992  3828 net.cpp:165] Memory required for data: 1150033960
I1025 08:35:48.222007  3828 layer_factory.hpp:77] Creating layer pool5
I1025 08:35:48.222038  3828 net.cpp:100] Creating Layer pool5
I1025 08:35:48.222049  3828 net.cpp:434] pool5 <- conv5_3
I1025 08:35:48.222069  3828 net.cpp:408] pool5 -> pool5
I1025 08:35:48.222213  3828 net.cpp:150] Setting up pool5
I1025 08:35:48.222225  3828 net.cpp:157] Top shape: 10 512 7 7 (250880)
I1025 08:35:48.222229  3828 net.cpp:165] Memory required for data: 1151037480
I1025 08:35:48.222234  3828 layer_factory.hpp:77] Creating layer fc6
I1025 08:35:48.222257  3828 net.cpp:100] Creating Layer fc6
I1025 08:35:48.222262  3828 net.cpp:434] fc6 <- pool5
I1025 08:35:48.222270  3828 net.cpp:408] fc6 -> fc6
I1025 08:35:48.846465  3828 net.cpp:150] Setting up fc6
I1025 08:35:48.846549  3828 net.cpp:157] Top shape: 10 4096 (40960)
I1025 08:35:48.846563  3828 net.cpp:165] Memory required for data: 1151201320
I1025 08:35:48.846585  3828 layer_factory.hpp:77] Creating layer relu6
I1025 08:35:48.846606  3828 net.cpp:100] Creating Layer relu6
I1025 08:35:48.846617  3828 net.cpp:434] relu6 <- fc6
I1025 08:35:48.846633  3828 net.cpp:395] relu6 -> fc6 (in-place)
I1025 08:35:48.847033  3828 net.cpp:150] Setting up relu6
I1025 08:35:48.847054  3828 net.cpp:157] Top shape: 10 4096 (40960)
I1025 08:35:48.847062  3828 net.cpp:165] Memory required for data: 1151365160
I1025 08:35:48.847070  3828 layer_factory.hpp:77] Creating layer drop6
I1025 08:35:48.847093  3828 net.cpp:100] Creating Layer drop6
I1025 08:35:48.847101  3828 net.cpp:434] drop6 <- fc6
I1025 08:35:48.847110  3828 net.cpp:395] drop6 -> fc6 (in-place)
I1025 08:35:48.847179  3828 net.cpp:150] Setting up drop6
I1025 08:35:48.847193  3828 net.cpp:157] Top shape: 10 4096 (40960)
I1025 08:35:48.847201  3828 net.cpp:165] Memory required for data: 1151529000
I1025 08:35:48.847211  3828 layer_factory.hpp:77] Creating layer fc7
I1025 08:35:48.847229  3828 net.cpp:100] Creating Layer fc7
I1025 08:35:48.847239  3828 net.cpp:434] fc7 <- fc6
I1025 08:35:48.847256  3828 net.cpp:408] fc7 -> fc7
I1025 08:35:48.952322  3828 net.cpp:150] Setting up fc7
I1025 08:35:48.952373  3828 net.cpp:157] Top shape: 10 4096 (40960)
I1025 08:35:48.952381  3828 net.cpp:165] Memory required for data: 1151692840
I1025 08:35:48.952397  3828 layer_factory.hpp:77] Creating layer relu7
I1025 08:35:48.952412  3828 net.cpp:100] Creating Layer relu7
I1025 08:35:48.952421  3828 net.cpp:434] relu7 <- fc7
I1025 08:35:48.952435  3828 net.cpp:395] relu7 -> fc7 (in-place)
I1025 08:35:48.953117  3828 net.cpp:150] Setting up relu7
I1025 08:35:48.953143  3828 net.cpp:157] Top shape: 10 4096 (40960)
I1025 08:35:48.953151  3828 net.cpp:165] Memory required for data: 1151856680
I1025 08:35:48.953160  3828 layer_factory.hpp:77] Creating layer drop7
I1025 08:35:48.953173  3828 net.cpp:100] Creating Layer drop7
I1025 08:35:48.953181  3828 net.cpp:434] drop7 <- fc7
I1025 08:35:48.953196  3828 net.cpp:395] drop7 -> fc7 (in-place)
I1025 08:35:48.953246  3828 net.cpp:150] Setting up drop7
I1025 08:35:48.953256  3828 net.cpp:157] Top shape: 10 4096 (40960)
I1025 08:35:48.953263  3828 net.cpp:165] Memory required for data: 1152020520
I1025 08:35:48.953269  3828 layer_factory.hpp:77] Creating layer facefc8
I1025 08:35:48.953294  3828 net.cpp:100] Creating Layer facefc8
I1025 08:35:48.953312  3828 net.cpp:434] facefc8 <- fc7
I1025 08:35:48.953321  3828 net.cpp:408] facefc8 -> fc8
I1025 08:35:48.956223  3828 net.cpp:150] Setting up facefc8
I1025 08:35:48.956318  3828 net.cpp:157] Top shape: 10 100 (1000)
I1025 08:35:48.956328  3828 net.cpp:165] Memory required for data: 1152024520
I1025 08:35:48.956352  3828 layer_factory.hpp:77] Creating layer loss
I1025 08:35:48.956384  3828 net.cpp:100] Creating Layer loss
I1025 08:35:48.956398  3828 net.cpp:434] loss <- fc8
I1025 08:35:48.956413  3828 net.cpp:434] loss <- label
I1025 08:35:48.956429  3828 net.cpp:408] loss -> loss
I1025 08:35:48.956465  3828 layer_factory.hpp:77] Creating layer loss
…
I1025 08:35:48.959270  3828 net.cpp:322] The NetState phase (1) differed from the phase (0) specified by a rule in layer data
I1025 08:35:48.959723  3828 net.cpp:58] Initializing net from parameters: 
name: "vggface_train_test"
state {
  phase: TEST
}
layer {
  name: "data"
  type: "Data"
  top: "data"
  top: "label"
  include {
    phase: TEST
  }
  transform_param {
    mirror: false
    crop_size: 224
    mean_file: "vggface2/face_mean.binaryproto"
  }
  data_param {
    source: "vggface2/face_val_lmdb"
    batch_size: 10
    backend: LMDB
  }
}
layer {
  name: "conv1_1"
  type: "Convolution"
  bottom: "data"
  top: "conv1_1"
  convolution_param {
    num_output: 64
    pad: 1
    kernel_size: 3
  }
}
layer {
  name: "relu1_1"
  type: "ReLU"
  bottom: "conv1_1"
  top: "conv1_1"
}
layer {
  name: "conv1_2"
  type: "Convolution"
  bottom: "conv1_1"
  top: "conv1_2"
  convolution_param {
    num_output: 64
    pad: 1
    kernel_size: 3
  }
}
layer {
  name: "relu1_2"
  type: "ReLU"
  bottom: "conv1_2"
  top: "conv1_2"
}
layer {
  name: "pool1"
  type: "Pooling"
  bottom: "conv1_2"
  top: "pool1"
  pooling_param {
    pool: MAX
    kernel_size: 2
    stride: 2
  }
}
layer {
  name: "conv2_1"
  type: "Convolution"
  bottom: "pool1"
  top: "conv2_1"
  convolution_param {
    num_output: 128
    pad: 1
    kernel_size: 3
  }
}
layer {
  name: "relu2_1"
  type: "ReLU"
  bottom: "conv2_1"
  top: "conv2_1"
}
layer {
  name: "conv2_2"
  type: "Convolution"
  bottom: "conv2_1"
  top: "conv2_2"
  convolution_param {
    num_output: 128
    pad: 1
    kernel_size: 3
  }
}
layer {
  name: "relu2_2"
  type: "ReLU"
  bottom: "conv2_2"
  top: "conv2_2"
}
layer {
  name: "pool2"
  type: "Pooling"
  bottom: "conv2_2"
  top: "pool2"
  pooling_param {
    pool: MAX
    kernel_size: 2
    stride: 2
  }
}
layer {
  name: "conv3_1"
  type: "Convolution"
  bottom: "pool2"
  top: "conv3_1"
  convolution_param {
    num_output: 256
    pad: 1
    kernel_size: 3
  }
}
layer {
  name: "relu3_1"
  type: "ReLU"
  bottom: "conv3_1"
  top: "conv3_1"
}
layer {
  name: "conv3_2"
  type: "Convolution"
  bottom: "conv3_1"
  top: "conv3_2"
  convolution_param {
    num_output: 256
    pad: 1
    kernel_size: 3
  }
}
layer {
  name: "relu3_2"
  type: "ReLU"
  bottom: "conv3_2"
  top: "conv3_2"
}
layer {
  name: "conv3_3"
  type: "Convolution"
  bottom: "conv3_2"
  top: "conv3_3"
  convolution_param {
    num_output: 256
    pad: 1
    kernel_size: 3
  }
}
layer {
  name: "relu3_3"
  type: "ReLU"
  bottom: "conv3_3"
  top: "conv3_3"
}
layer {
  name: "pool3"
  type: "Pooling"
  bottom: "conv3_3"
  top: "pool3"
  pooling_param {
    pool: MAX
    kernel_size: 2
    stride: 2
  }
}
layer {
  name: "conv4_1"
  type: "Convolution"
  bottom: "pool3"
  top: "conv4_1"
  convolution_param {
    num_output: 512
    pad: 1
    kernel_size: 3
  }
}
layer {
  name: "relu4_1"
  type: "ReLU"
  bottom: "conv4_1"
  top: "conv4_1"
}
layer {
  name: "conv4_2"
  type: "Convolution"
  bottom: "conv4_1"
  top: "conv4_2"
  convolution_param {
    num_output: 512
    pad: 1
    kernel_size: 3
  }
}
layer {
  name: "relu4_2"
  type: "ReLU"
  bottom: "conv4_2"
  top: "conv4_2"
}
layer {
  name: "conv4_3"
  type: "Convolution"
  bottom: "conv4_2"
  top: "conv4_3"
  convolution_param {
    num_output: 512
    pad: 1
    kernel_size: 3
  }
}
layer {
  name: "relu4_3"
  type: "ReLU"
  bottom: "conv4_3"
  top: "conv4_3"
}
layer {
  name: "pool4"
  type: "Pooling"
  bottom: "conv4_3"
  top: "pool4"
  pooling_param {
    pool: MAX
    kernel_size: 2
    stride: 2
  }
}
layer {
  name: "conv5_1"
  type: "Convolution"
  bottom: "pool4"
  top: "conv5_1"
  convolution_param {
    num_output: 512
    pad: 1
    kernel_size: 3
  }
}
layer {
  name: "relu5_1"
  type: "ReLU"
  bottom: "conv5_1"
  top: "conv5_1"
}
layer {
  name: "conv5_2"
  type: "Convolution"
  bottom: "conv5_1"
  top: "conv5_2"
  convolution_param {
    num_output: 512
    pad: 1
    kernel_size: 3
  }
}
layer {
  name: "relu5_2"
  type: "ReLU"
  bottom: "conv5_2"
  top: "conv5_2"
}
layer {
  name: "conv5_3"
  type: "Convolution"
  bottom: "conv5_2"
  top: "conv5_3"
  convolution_param {
    num_output: 512
    pad: 1
    kernel_size: 3
  }
}
layer {
  name: "relu5_3"
  type: "ReLU"
  bottom: "conv5_3"
  top: "conv5_3"
}
layer {
  name: "pool5"
  type: "Pooling"
  bottom: "conv5_3"
  top: "pool5"
  pooling_param {
    pool: MAX
    kernel_size: 2
    stride: 2
  }
}
layer {
  name: "fc6"
  type: "InnerProduct"
  bottom: "pool5"
  top: "fc6"
  inner_product_param {
    num_output: 4096
  }
}
layer {
  name: "relu6"
  type: "ReLU"
  bottom: "fc6"
  top: "fc6"
}
layer {
  name: "drop6"
  type: "Dropout"
  bottom: "fc6"
  top: "fc6"
  dropout_param {
    dropout_ratio: 0.5
  }
}
layer {
  name: "fc7"
  type: "InnerProduct"
  bottom: "fc6"
  top: "fc7"
  inner_product_param {
    num_output: 4096
  }
}
layer {
  name: "relu7"
  type: "ReLU"
  bottom: "fc7"
  top: "fc7"
}
layer {
  name: "drop7"
  type: "Dropout"
  bottom: "fc7"
  top: "fc7"
  dropout_param {
    dropout_ratio: 0.5
  }
}
layer {
  name: "facefc8"
  type: "InnerProduct"
  bottom: "fc7"
  top: "fc8"
  inner_product_param {
    num_output: 100
  }
}
layer {
  name: "loss"
  type: "SoftmaxWithLoss"
  bottom: "fc8"
  bottom: "label"
  top: "loss"
}
layer {
  name: "accuracy"
  type: "Accuracy"
  bottom: "fc8"
  bottom: "label"
  top: "accuracy"
  include {
    phase: TEST
  }
}
I1025 08:35:48.960139  3828 layer_factory.hpp:77] Creating layer data
I1025 08:35:48.960489  3828 net.cpp:100] Creating Layer data
I1025 08:35:48.960572  3828 net.cpp:408] data -> data
I1025 08:35:48.960650  3828 net.cpp:408] data -> label
I1025 08:35:48.960702  3828 data_transformer.cpp:25] Loading mean file from: vggface2/face_mean.binaryproto
I1025 08:35:48.966778  4933 db_lmdb.cpp:35] Opened lmdb vggface2/face_val_lmdb
I1025 08:35:48.967394  3828 data_layer.cpp:41] output data size: 10,3,224,224
I1025 08:35:49.002053  3828 net.cpp:150] Setting up data
I1025 08:35:49.002202  3828 net.cpp:157] Top shape: 10 3 224 224 (1505280)
I1025 08:35:49.002233  3828 net.cpp:157] Top shape: 10 (10)
I1025 08:35:49.002244  3828 net.cpp:165] Memory required for data: 6021160
I1025 08:35:49.002270  3828 layer_factory.hpp:77] Creating layer label_data_1_split
I1025 08:35:49.002331  3828 net.cpp:100] Creating Layer label_data_1_split
I1025 08:35:49.002342  3828 net.cpp:434] label_data_1_split <- label
I1025 08:35:49.002369  3828 net.cpp:408] label_data_1_split -> label_data_1_split_0
I1025 08:35:49.002396  3828 net.cpp:408] label_data_1_split -> label_data_1_split_1
I1025 08:35:49.002825  3828 net.cpp:150] Setting up label_data_1_split
I1025 08:35:49.002890  3828 net.cpp:157] Top shape: 10 (10)
I1025 08:35:49.002914  3828 net.cpp:157] Top shape: 10 (10)
I1025 08:35:49.002934  3828 net.cpp:165] Memory required for data: 6021240
I1025 08:35:49.002960  3828 layer_factory.hpp:77] Creating layer conv1_1
I1025 08:35:49.003017  3828 net.cpp:100] Creating Layer conv1_1
I1025 08:35:49.003044  3828 net.cpp:434] conv1_1 <- data
I1025 08:35:49.003073  3828 net.cpp:408] conv1_1 -> conv1_1
I1025 08:35:49.012926  3828 net.cpp:150] Setting up conv1_1
I1025 08:35:49.013000  3828 net.cpp:157] Top shape: 10 64 224 224 (32112640)
I1025 08:35:49.013010  3828 net.cpp:165] Memory required for data: 134471800
I1025 08:35:49.013034  3828 layer_factory.hpp:77] Creating layer relu1_1
I1025 08:35:49.013053  3828 net.cpp:100] Creating Layer relu1_1
I1025 08:35:49.013063  3828 net.cpp:434] relu1_1 <- conv1_1
I1025 08:35:49.013080  3828 net.cpp:395] relu1_1 -> conv1_1 (in-place)
I1025 08:35:49.013901  3828 net.cpp:150] Setting up relu1_1
I1025 08:35:49.013962  3828 net.cpp:157] Top shape: 10 64 224 224 (32112640)
I1025 08:35:49.013986  3828 net.cpp:165] Memory required for data: 262922360
I1025 08:35:49.013998  3828 layer_factory.hpp:77] Creating layer conv1_2
I1025 08:35:49.014025  3828 net.cpp:100] Creating Layer conv1_2
I1025 08:35:49.014034  3828 net.cpp:434] conv1_2 <- conv1_1
I1025 08:35:49.014047  3828 net.cpp:408] conv1_2 -> conv1_2
I1025 08:35:49.026401  3828 net.cpp:150] Setting up conv1_2
I1025 08:35:49.026496  3828 net.cpp:157] Top shape: 10 64 224 224 (32112640)
I1025 08:35:49.026513  3828 net.cpp:165] Memory required for data: 391372920
I1025 08:35:49.026554  3828 layer_factory.hpp:77] Creating layer relu1_2
I1025 08:35:49.026594  3828 net.cpp:100] Creating Layer relu1_2
I1025 08:35:49.026615  3828 net.cpp:434] relu1_2 <- conv1_2
I1025 08:35:49.026635  3828 net.cpp:395] relu1_2 -> conv1_2 (in-place)
I1025 08:35:49.027324  3828 net.cpp:150] Setting up relu1_2
I1025 08:35:49.027385  3828 net.cpp:157] Top shape: 10 64 224 224 (32112640)
I1025 08:35:49.027395  3828 net.cpp:165] Memory required for data: 519823480
I1025 08:35:49.027408  3828 layer_factory.hpp:77] Creating layer pool1
I1025 08:35:49.027436  3828 net.cpp:100] Creating Layer pool1
I1025 08:35:49.027447  3828 net.cpp:434] pool1 <- conv1_2
I1025 08:35:49.027465  3828 net.cpp:408] pool1 -> pool1
I1025 08:35:49.027626  3828 net.cpp:150] Setting up pool1
I1025 08:35:49.027644  3828 net.cpp:157] Top shape: 10 64 112 112 (8028160)
I1025 08:35:49.027652  3828 net.cpp:165] Memory required for data: 551936120
I1025 08:35:49.027658  3828 layer_factory.hpp:77] Creating layer conv2_1
I1025 08:35:49.027709  3828 net.cpp:100] Creating Layer conv2_1
I1025 08:35:49.027720  3828 net.cpp:434] conv2_1 <- pool1
I1025 08:35:49.027732  3828 net.cpp:408] conv2_1 -> conv2_1
I1025 08:35:49.045917  3828 net.cpp:150] Setting up conv2_1
I1025 08:35:49.045980  3828 net.cpp:157] Top shape: 10 128 112 112 (16056320)
I1025 08:35:49.045991  3828 net.cpp:165] Memory required for data: 616161400
I1025 08:35:49.046018  3828 layer_factory.hpp:77] Creating layer relu2_1
I1025 08:35:49.046044  3828 net.cpp:100] Creating Layer relu2_1
I1025 08:35:49.046057  3828 net.cpp:434] relu2_1 <- conv2_1
I1025 08:35:49.046072  3828 net.cpp:395] relu2_1 -> conv2_1 (in-place)
I1025 08:35:49.046964  3828 net.cpp:150] Setting up relu2_1
I1025 08:35:49.047052  3828 net.cpp:157] Top shape: 10 128 112 112 (16056320)
I1025 08:35:49.047067  3828 net.cpp:165] Memory required for data: 680386680
I1025 08:35:49.047086  3828 layer_factory.hpp:77] Creating layer conv2_2
I1025 08:35:49.047118  3828 net.cpp:100] Creating Layer conv2_2
I1025 08:35:49.047137  3828 net.cpp:434] conv2_2 <- conv2_1
I1025 08:35:49.047160  3828 net.cpp:408] conv2_2 -> conv2_2
I1025 08:35:49.095808  3828 net.cpp:150] Setting up conv2_2
I1025 08:35:49.095899  3828 net.cpp:157] Top shape: 10 128 112 112 (16056320)
I1025 08:35:49.095912  3828 net.cpp:165] Memory required for data: 744611960
I1025 08:35:49.095937  3828 layer_factory.hpp:77] Creating layer relu2_2
I1025 08:35:49.095963  3828 net.cpp:100] Creating Layer relu2_2
I1025 08:35:49.095975  3828 net.cpp:434] relu2_2 <- conv2_2
I1025 08:35:49.095991  3828 net.cpp:395] relu2_2 -> conv2_2 (in-place)
I1025 08:35:49.097468  3828 net.cpp:150] Setting up relu2_2
I1025 08:35:49.097584  3828 net.cpp:157] Top shape: 10 128 112 112 (16056320)
I1025 08:35:49.117311  3828 net.cpp:165] Memory required for data: 808837240
I1025 08:35:49.117363  3828 layer_factory.hpp:77] Creating layer pool2
I1025 08:35:49.117382  3828 net.cpp:100] Creating Layer pool2
I1025 08:35:49.117390  3828 net.cpp:434] pool2 <- conv2_2
I1025 08:35:49.117403  3828 net.cpp:408] pool2 -> pool2
I1025 08:35:49.117559  3828 net.cpp:150] Setting up pool2
I1025 08:35:49.117583  3828 net.cpp:157] Top shape: 10 128 56 56 (4014080)
I1025 08:35:49.117595  3828 net.cpp:165] Memory required for data: 824893560
I1025 08:35:49.117609  3828 layer_factory.hpp:77] Creating layer conv3_1
I1025 08:35:49.117635  3828 net.cpp:100] Creating Layer conv3_1
I1025 08:35:49.117667  3828 net.cpp:434] conv3_1 <- pool2
I1025 08:35:49.117686  3828 net.cpp:408] conv3_1 -> conv3_1
I1025 08:35:49.147750  3828 net.cpp:150] Setting up conv3_1
I1025 08:35:49.147835  3828 net.cpp:157] Top shape: 10 256 56 56 (8028160)
I1025 08:35:49.147845  3828 net.cpp:165] Memory required for data: 857006200
I1025 08:35:49.147883  3828 layer_factory.hpp:77] Creating layer relu3_1
I1025 08:35:49.147909  3828 net.cpp:100] Creating Layer relu3_1
I1025 08:35:49.147931  3828 net.cpp:434] relu3_1 <- conv3_1
I1025 08:35:49.147953  3828 net.cpp:395] relu3_1 -> conv3_1 (in-place)
I1025 08:35:49.148661  3828 net.cpp:150] Setting up relu3_1
I1025 08:35:49.156409  3828 net.cpp:157] Top shape: 10 256 56 56 (8028160)
I1025 08:35:49.156452  3828 net.cpp:165] Memory required for data: 889118840
I1025 08:35:49.156466  3828 layer_factory.hpp:77] Creating layer conv3_2
I1025 08:35:49.156498  3828 net.cpp:100] Creating Layer conv3_2
I1025 08:35:49.156510  3828 net.cpp:434] conv3_2 <- conv3_1
I1025 08:35:49.156527  3828 net.cpp:408] conv3_2 -> conv3_2
I1025 08:35:49.195936  3828 net.cpp:150] Setting up conv3_2
I1025 08:35:49.195986  3828 net.cpp:157] Top shape: 10 256 56 56 (8028160)
I1025 08:35:49.195993  3828 net.cpp:165] Memory required for data: 921231480
I1025 08:35:49.196010  3828 layer_factory.hpp:77] Creating layer relu3_2
I1025 08:35:49.196027  3828 net.cpp:100] Creating Layer relu3_2
I1025 08:35:49.196038  3828 net.cpp:434] relu3_2 <- conv3_2
I1025 08:35:49.196049  3828 net.cpp:395] relu3_2 -> conv3_2 (in-place)
I1025 08:35:49.197090  3828 net.cpp:150] Setting up relu3_2
I1025 08:35:49.197173  3828 net.cpp:157] Top shape: 10 256 56 56 (8028160)
I1025 08:35:49.197182  3828 net.cpp:165] Memory required for data: 953344120
I1025 08:35:49.197194  3828 layer_factory.hpp:77] Creating layer conv3_3
I1025 08:35:49.197224  3828 net.cpp:100] Creating Layer conv3_3
I1025 08:35:49.197237  3828 net.cpp:434] conv3_3 <- conv3_2
I1025 08:35:49.197252  3828 net.cpp:408] conv3_3 -> conv3_3
I1025 08:35:49.221712  3828 net.cpp:150] Setting up conv3_3
I1025 08:35:49.221823  3828 net.cpp:157] Top shape: 10 256 56 56 (8028160)
I1025 08:35:49.221843  3828 net.cpp:165] Memory required for data: 985456760
I1025 08:35:49.221885  3828 layer_factory.hpp:77] Creating layer relu3_3
I1025 08:35:49.221925  3828 net.cpp:100] Creating Layer relu3_3
I1025 08:35:49.221951  3828 net.cpp:434] relu3_3 <- conv3_3
I1025 08:35:49.221983  3828 net.cpp:395] relu3_3 -> conv3_3 (in-place)
I1025 08:35:49.223296  3828 net.cpp:150] Setting up relu3_3
I1025 08:35:49.223387  3828 net.cpp:157] Top shape: 10 256 56 56 (8028160)
I1025 08:35:49.223403  3828 net.cpp:165] Memory required for data: 1017569400
I1025 08:35:49.223420  3828 layer_factory.hpp:77] Creating layer pool3
I1025 08:35:49.223451  3828 net.cpp:100] Creating Layer pool3
I1025 08:35:49.223464  3828 net.cpp:434] pool3 <- conv3_3
I1025 08:35:49.223481  3828 net.cpp:408] pool3 -> pool3
I1025 08:35:49.234478  3828 net.cpp:150] Setting up pool3
I1025 08:35:49.234560  3828 net.cpp:157] Top shape: 10 256 28 28 (2007040)
I1025 08:35:49.234575  3828 net.cpp:165] Memory required for data: 1025597560
I1025 08:35:49.234588  3828 layer_factory.hpp:77] Creating layer conv4_1
I1025 08:35:49.234617  3828 net.cpp:100] Creating Layer conv4_1
I1025 08:35:49.234632  3828 net.cpp:434] conv4_1 <- pool3
I1025 08:35:49.234645  3828 net.cpp:408] conv4_1 -> conv4_1
I1025 08:35:49.311875  3828 net.cpp:150] Setting up conv4_1
I1025 08:35:49.311939  3828 net.cpp:157] Top shape: 10 512 28 28 (4014080)
I1025 08:35:49.311949  3828 net.cpp:165] Memory required for data: 1041653880
I1025 08:35:49.311967  3828 layer_factory.hpp:77] Creating layer relu4_1
I1025 08:35:49.311987  3828 net.cpp:100] Creating Layer relu4_1
I1025 08:35:49.312000  3828 net.cpp:434] relu4_1 <- conv4_1
I1025 08:35:49.312014  3828 net.cpp:395] relu4_1 -> conv4_1 (in-place)
I1025 08:35:49.312444  3828 net.cpp:150] Setting up relu4_1
I1025 08:35:49.312477  3828 net.cpp:157] Top shape: 10 512 28 28 (4014080)
I1025 08:35:49.312489  3828 net.cpp:165] Memory required for data: 1057710200
I1025 08:35:49.312525  3828 layer_factory.hpp:77] Creating layer conv4_2
I1025 08:35:49.312574  3828 net.cpp:100] Creating Layer conv4_2
I1025 08:35:49.312584  3828 net.cpp:434] conv4_2 <- conv4_1
I1025 08:35:49.312597  3828 net.cpp:408] conv4_2 -> conv4_2
I1025 08:35:49.373150  3828 net.cpp:150] Setting up conv4_2
I1025 08:35:49.373270  3828 net.cpp:157] Top shape: 10 512 28 28 (4014080)
I1025 08:35:49.373294  3828 net.cpp:165] Memory required for data: 1073766520
I1025 08:35:49.373358  3828 layer_factory.hpp:77] Creating layer relu4_2
I1025 08:35:49.373401  3828 net.cpp:100] Creating Layer relu4_2
I1025 08:35:49.373423  3828 net.cpp:434] relu4_2 <- conv4_2
I1025 08:35:49.373446  3828 net.cpp:395] relu4_2 -> conv4_2 (in-place)
I1025 08:35:49.375828  3828 net.cpp:150] Setting up relu4_2
I1025 08:35:49.375910  3828 net.cpp:157] Top shape: 10 512 28 28 (4014080)
I1025 08:35:49.375923  3828 net.cpp:165] Memory required for data: 1089822840
I1025 08:35:49.375939  3828 layer_factory.hpp:77] Creating layer conv4_3
I1025 08:35:49.375977  3828 net.cpp:100] Creating Layer conv4_3
I1025 08:35:49.375999  3828 net.cpp:434] conv4_3 <- conv4_2
I1025 08:35:49.376030  3828 net.cpp:408] conv4_3 -> conv4_3
I1025 08:35:49.448099  3828 net.cpp:150] Setting up conv4_3
I1025 08:35:49.448217  3828 net.cpp:157] Top shape: 10 512 28 28 (4014080)
I1025 08:35:49.448238  3828 net.cpp:165] Memory required for data: 1105879160
I1025 08:35:49.448277  3828 layer_factory.hpp:77] Creating layer relu4_3
I1025 08:35:49.448326  3828 net.cpp:100] Creating Layer relu4_3
I1025 08:35:49.448354  3828 net.cpp:434] relu4_3 <- conv4_3
I1025 08:35:49.448382  3828 net.cpp:395] relu4_3 -> conv4_3 (in-place)
I1025 08:35:49.452224  3828 net.cpp:150] Setting up relu4_3
I1025 08:35:49.452283  3828 net.cpp:157] Top shape: 10 512 28 28 (4014080)
I1025 08:35:49.452298  3828 net.cpp:165] Memory required for data: 1121935480
I1025 08:35:49.452317  3828 layer_factory.hpp:77] Creating layer pool4
I1025 08:35:49.452356  3828 net.cpp:100] Creating Layer pool4
I1025 08:35:49.452378  3828 net.cpp:434] pool4 <- conv4_3
I1025 08:35:49.452411  3828 net.cpp:408] pool4 -> pool4
I1025 08:35:49.452692  3828 net.cpp:150] Setting up pool4
I1025 08:35:49.452723  3828 net.cpp:157] Top shape: 10 512 14 14 (1003520)
I1025 08:35:49.452735  3828 net.cpp:165] Memory required for data: 1125949560
I1025 08:35:49.452747  3828 layer_factory.hpp:77] Creating layer conv5_1
I1025 08:35:49.452778  3828 net.cpp:100] Creating Layer conv5_1
I1025 08:35:49.452793  3828 net.cpp:434] conv5_1 <- pool4
I1025 08:35:49.452816  3828 net.cpp:408] conv5_1 -> conv5_1
I1025 08:35:49.510100  3828 net.cpp:150] Setting up conv5_1
I1025 08:35:49.510205  3828 net.cpp:157] Top shape: 10 512 14 14 (1003520)
I1025 08:35:49.510226  3828 net.cpp:165] Memory required for data: 1129963640
I1025 08:35:49.510267  3828 layer_factory.hpp:77] Creating layer relu5_1
I1025 08:35:49.510299  3828 net.cpp:100] Creating Layer relu5_1
I1025 08:35:49.510327  3828 net.cpp:434] relu5_1 <- conv5_1
I1025 08:35:49.510357  3828 net.cpp:395] relu5_1 -> conv5_1 (in-place)
I1025 08:35:49.522192  3828 net.cpp:150] Setting up relu5_1
I1025 08:35:49.522259  3828 net.cpp:157] Top shape: 10 512 14 14 (1003520)
I1025 08:35:49.522274  3828 net.cpp:165] Memory required for data: 1133977720
I1025 08:35:49.522291  3828 layer_factory.hpp:77] Creating layer conv5_2
I1025 08:35:49.522330  3828 net.cpp:100] Creating Layer conv5_2
I1025 08:35:49.522351  3828 net.cpp:434] conv5_2 <- conv5_1
I1025 08:35:49.522378  3828 net.cpp:408] conv5_2 -> conv5_2
I1025 08:35:49.581692  3828 net.cpp:150] Setting up conv5_2
I1025 08:35:49.581754  3828 net.cpp:157] Top shape: 10 512 14 14 (1003520)
I1025 08:35:49.581765  3828 net.cpp:165] Memory required for data: 1137991800
I1025 08:35:49.581784  3828 layer_factory.hpp:77] Creating layer relu5_2
I1025 08:35:49.581805  3828 net.cpp:100] Creating Layer relu5_2
I1025 08:35:49.581818  3828 net.cpp:434] relu5_2 <- conv5_2
I1025 08:35:49.581835  3828 net.cpp:395] relu5_2 -> conv5_2 (in-place)
I1025 08:35:49.583938  3828 net.cpp:150] Setting up relu5_2
I1025 08:35:49.584014  3828 net.cpp:157] Top shape: 10 512 14 14 (1003520)
I1025 08:35:49.584046  3828 net.cpp:165] Memory required for data: 1142005880
I1025 08:35:49.584064  3828 layer_factory.hpp:77] Creating layer conv5_3
I1025 08:35:49.584094  3828 net.cpp:100] Creating Layer conv5_3
I1025 08:35:49.584111  3828 net.cpp:434] conv5_3 <- conv5_2
I1025 08:35:49.584141  3828 net.cpp:408] conv5_3 -> conv5_3
I1025 08:35:49.638342  3828 net.cpp:150] Setting up conv5_3
I1025 08:35:49.638447  3828 net.cpp:157] Top shape: 10 512 14 14 (1003520)
I1025 08:35:49.638463  3828 net.cpp:165] Memory required for data: 1146019960
I1025 08:35:49.638487  3828 layer_factory.hpp:77] Creating layer relu5_3
I1025 08:35:49.638515  3828 net.cpp:100] Creating Layer relu5_3
I1025 08:35:49.638530  3828 net.cpp:434] relu5_3 <- conv5_3
I1025 08:35:49.638543  3828 net.cpp:395] relu5_3 -> conv5_3 (in-place)
I1025 08:35:49.665624  3828 net.cpp:150] Setting up relu5_3
I1025 08:35:49.665743  3828 net.cpp:157] Top shape: 10 512 14 14 (1003520)
I1025 08:35:49.665761  3828 net.cpp:165] Memory required for data: 1150034040
I1025 08:35:49.665781  3828 layer_factory.hpp:77] Creating layer pool5
I1025 08:35:49.665850  3828 net.cpp:100] Creating Layer pool5
I1025 08:35:49.665892  3828 net.cpp:434] pool5 <- conv5_3
I1025 08:35:49.665947  3828 net.cpp:408] pool5 -> pool5
I1025 08:35:49.666385  3828 net.cpp:150] Setting up pool5
I1025 08:35:49.666422  3828 net.cpp:157] Top shape: 10 512 7 7 (250880)
I1025 08:35:49.666436  3828 net.cpp:165] Memory required for data: 1151037560
I1025 08:35:49.666451  3828 layer_factory.hpp:77] Creating layer fc6
I1025 08:35:49.666496  3828 net.cpp:100] Creating Layer fc6
I1025 08:35:49.666530  3828 net.cpp:434] fc6 <- pool5
I1025 08:35:49.666575  3828 net.cpp:408] fc6 -> fc6
I1025 08:35:51.709066  3828 net.cpp:150] Setting up fc6
I1025 08:35:51.709187  3828 net.cpp:157] Top shape: 10 4096 (40960)
I1025 08:35:51.709197  3828 net.cpp:165] Memory required for data: 1151201400
I1025 08:35:51.709223  3828 layer_factory.hpp:77] Creating layer relu6
I1025 08:35:51.709259  3828 net.cpp:100] Creating Layer relu6
I1025 08:35:51.709278  3828 net.cpp:434] relu6 <- fc6
I1025 08:35:51.709300  3828 net.cpp:395] relu6 -> fc6 (in-place)
I1025 08:35:51.710276  3828 net.cpp:150] Setting up relu6
I1025 08:35:51.710419  3828 net.cpp:157] Top shape: 10 4096 (40960)
I1025 08:35:51.710450  3828 net.cpp:165] Memory required for data: 1151365240
I1025 08:35:51.710490  3828 layer_factory.hpp:77] Creating layer drop6
I1025 08:35:51.710572  3828 net.cpp:100] Creating Layer drop6
I1025 08:35:51.710616  3828 net.cpp:434] drop6 <- fc6
I1025 08:35:51.710671  3828 net.cpp:395] drop6 -> fc6 (in-place)
I1025 08:35:51.751873  3828 net.cpp:150] Setting up drop6
I1025 08:35:51.751978  3828 net.cpp:157] Top shape: 10 4096 (40960)
I1025 08:35:51.751997  3828 net.cpp:165] Memory required for data: 1151529080
I1025 08:35:51.752020  3828 layer_factory.hpp:77] Creating layer fc7
I1025 08:35:51.752071  3828 net.cpp:100] Creating Layer fc7
I1025 08:35:51.752094  3828 net.cpp:434] fc7 <- fc6
I1025 08:35:51.752127  3828 net.cpp:408] fc7 -> fc7
I1025 08:35:52.786366  3828 net.cpp:150] Setting up fc7
I1025 08:35:52.786571  3828 net.cpp:157] Top shape: 10 4096 (40960)
I1025 08:35:52.786614  3828 net.cpp:165] Memory required for data: 1151692920
I1025 08:35:52.786674  3828 layer_factory.hpp:77] Creating layer relu7
I1025 08:35:52.786723  3828 net.cpp:100] Creating Layer relu7
I1025 08:35:52.786751  3828 net.cpp:434] relu7 <- fc7
I1025 08:35:52.786780  3828 net.cpp:395] relu7 -> fc7 (in-place)
I1025 08:35:52.789182  3828 net.cpp:150] Setting up relu7
I1025 08:35:52.789371  3828 net.cpp:157] Top shape: 10 4096 (40960)
I1025 08:35:52.789420  3828 net.cpp:165] Memory required for data: 1151856760
I1025 08:35:52.789460  3828 layer_factory.hpp:77] Creating layer drop7
I1025 08:35:52.789539  3828 net.cpp:100] Creating Layer drop7
I1025 08:35:52.789597  3828 net.cpp:434] drop7 <- fc7
I1025 08:35:52.789664  3828 net.cpp:395] drop7 -> fc7 (in-place)
I1025 08:35:52.790139  3828 net.cpp:150] Setting up drop7
I1025 08:35:52.790267  3828 net.cpp:157] Top shape: 10 4096 (40960)
I1025 08:35:52.790405  3828 net.cpp:165] Memory required for data: 1152020600
I1025 08:35:52.790436  3828 layer_factory.hpp:77] Creating layer facefc8
I1025 08:35:52.790527  3828 net.cpp:100] Creating Layer facefc8
I1025 08:35:52.790599  3828 net.cpp:434] facefc8 <- fc7
I1025 08:35:52.790664  3828 net.cpp:408] facefc8 -> fc8
I1025 08:35:52.800215  3828 net.cpp:150] Setting up facefc8
I1025 08:35:52.800314  3828 net.cpp:157] Top shape: 10 100 (1000)
I1025 08:35:52.800333  3828 net.cpp:165] Memory required for data: 1152024600
I1025 08:35:52.800360  3828 layer_factory.hpp:77] Creating layer fc8_facefc8_0_split
I1025 08:35:52.800395  3828 net.cpp:100] Creating Layer fc8_facefc8_0_split
I1025 08:35:52.800415  3828 net.cpp:434] fc8_facefc8_0_split <- fc8
I1025 08:35:52.800437  3828 net.cpp:408] fc8_facefc8_0_split -> fc8_facefc8_0_split_0
I1025 08:35:52.800470  3828 net.cpp:408] fc8_facefc8_0_split -> fc8_facefc8_0_split_1
I1025 08:35:52.800658  3828 net.cpp:150] Setting up fc8_facefc8_0_split
I1025 08:35:52.800684  3828 net.cpp:157] Top shape: 10 100 (1000)
I1025 08:35:52.800698  3828 net.cpp:157] Top shape: 10 100 (1000)
I1025 08:35:52.800709  3828 net.cpp:165] Memory required for data: 1152032600
I1025 08:35:52.800721  3828 layer_factory.hpp:77] Creating layer loss
I1025 08:35:52.800745  3828 net.cpp:100] Creating Layer loss
I1025 08:35:52.800758  3828 net.cpp:434] loss <- fc8_facefc8_0_split_0
I1025 08:35:52.800773  3828 net.cpp:434] loss <- label_data_1_split_0
I1025 08:35:52.800789  3828 net.cpp:408] loss -> loss
…
